log/ttt/dqn/policy.pth (torch, 430675 bytes, 20 tensors)

model.model.model.0.weight f4 [128, 18]
0	0x3d6219b0	0.05520028
1	0x3d2992d2	0.041399784
2	0xba0c54a7	-0.00053531904
3	0xbe0470d9	-0.12933673
4	0x3d8ac39e	0.06775592
5	0x3da6b203	0.08139422
6	0xbe4c86cf	-0.199733
7	0xbe2f2523	-0.1710401
8	0x3bf4ebea	0.007474412
9	0x3e0704e0	0.13185453
10	0xbd925054	-0.071442276
11	0xbdb1a1eb	-0.086734615
12	0xbe4cad38	-0.19987953
13	0xbe3c9b47	-0.18418609
14	0x3da656d1	0.08122028
15	0xbe0a6e72	-0.13518694
16	0xbd776d5f	-0.06040704
17	0xbe023515	-0.12715562
18	0x3dca6624	0.09882763
19	0xbe834e14	-0.25645506
20	0x3e375ceb	0.17906539
21	0x3e2c2ddc	0.16814369
22	0xbcff698d	-0.03117826
23	0xbdd80960	-0.10548663
24	0xbe4ca38e	-0.19984266
25	0xbd6e6257	-0.058199253
26	0x3e22d609	0.1590196
27	0x3c0325d1	0.008004622
28	0x3e6d6fc1	0.23187162
29	0xbd4792a0	-0.048723817
30	0xbd98c2da	-0.0745904
31	0x3e6e34e3	0.23262362
32	0x3e22c450	0.158952
33	0x3bc67362	0.006056235
34	0xbddf3035	-0.10897867
35	0xbd0c5a5f	-0.034265872
36	0xbda01128	-0.07815772
37	0x3e58b5ef	0.21163152
38	0x3d154589	0.036443267
39	0xbe65b5ee	-0.22432682
40	0x3e660dcc	0.224662
41	0x3e2da7bb	0.16958515
42	0xbde84a9a	-0.11342354
43	0x3e1e3980	0.15451622
44	0xbe4267be	-0.18984887
45	0x3d3ead0e	0.046551757
46	0xbe1f6f23	-0.15569739
47	0x3dee427f	0.11633777
48	0xbda869ee	-0.082233295
49	0x3d572af7	0.05253121
50	0x3e8f06d3	0.27934894
51	0xbd8b87a9	-0.068129845
52	0x3e31d794	0.17367393
53	0xbe638006	-0.22216806
54	0xbd378f5a	-0.044814445
55	0xbc9e2ef2	-0.019309495
56	0x3e39fd69	0.18163075
57	0xbc49a1f2	-0.012306677
58	0x3dd47e1b	0.10375615
59	0x3e20968f	0.15682434
60	0x3df44a18	0.11928195
61	0x3c484464	0.012223337
62	0xbdf6e678	-0.12055677
63	0x3d87c4f7	0.06629365
64	0xbe238fcb	-0.15972821
65	0xbe2ec89c	-0.17068714
66	0x3e499b37	0.19688116
67	0x3d661352	0.05617077
68	0xbe422b1b	-0.18961756
69	0x3e64dbb5	0.22349437
70	0xbe04cd13	-0.12968855
71	0xbd1e3deb	-0.03863327
72	0xbd368e28	-0.044569165
73	0x3e108ba5	0.1411577
74	0xbe09c824	-0.13455254
75	0xbda68d6d	-0.081324436
76	0x3e426db4	0.18987161
77	0xbe3d3f09	-0.18481077
78	0xbd6225e7	-0.055211928
79	0xbe2235a0	-0.15840769
80	0x3e68b606	0.22725686
81	0x3deea9a4	0.1165345
82	0xbe61ca81	-0.22049905
83	0xbe44512d	-0.19171591
84	0xbd147be4	-0.036250964
85	0x3e694009	0.22778334
86	0x3c8701d3	0.016480362
87	0x3e2ec355	0.17066701
88	0xbc115ada	-0.008871758
89	0x3d2bd98c	0.041955516
90	0x3d4c41cf	0.049867447
91	0x3dddd7ef	0.10832202
92	0xbd918342	-0.071051136
93	0x3da6c6ed	0.08143411
94	0x3e3df349	0.18549837
95	0xbe6df2cd	-0.23237152
96	0x3e05e3df	0.13075207
97	0x3cdd7d64	0.02703733
98	0x3e450235	0.19239123
99	0x3e3b22a9	0.1827494
100	0xbda196b8	-0.078900754
101	0xbd9476dd	-0.07249234
102	0x3dbda0de	0.092591986
103	0x3e5ef797	0.21774136
104	0x3e7d18a3	0.2471643
105	0x3e8b8a9f	0.27254197
106	0xbe3c8957	-0.18411766
107	0xbdf6b819	-0.120468326
108	0x3e103aa0	0.14084864
109	0x3e1c08f2	0.15237787
110	0xbe14bc99	-0.1452507
111	0xbe01b0da	-0.1266512
112	0x3e894745	0.26812187
113	0x3e157135	0.14593966
114	0xbdc34de6	-0.09536342
115	0x3daafefa	0.08349414
116	0x3e19d0f5	0.15021117
117	0x3e40636f	0.18787931
118	0x3e002431	0.12513806
119	0x3d2c2d85	0.0420356
120	0x3df17280	0.11789417
121	0x3e60e024	0.21960503
122	0x3e6bafb2	0.23016241
123	0x3e18c2ac	0.14918011
124	0xbdf5ccb9	-0.120019384
125	0x3e2643f3	0.16236858
126	0xbe6883e7	-0.22706567
127	0x3c4e15be	0.012578426
128	0x3e4b5bd5	0.1985925
129	0xbb276ae5	-0.0025545892
130	0x3d455c3a	0.048183657
131	0xbe37a0b1	-0.17932393
132	0xbe62f409	-0.22163405
133	0x3d70e7f0	0.058814943
134	0xbde52229	-0.11188156
135	0xbdde3917	-0.10850733
136	0xbd722a7c	-0.059122548
137	0x3e3eed67	0.1864525
138	0x3db30ac8	0.08742291
139	0xbd934ed7	-0.07192772
140	0x3e68cd49	0.2273456
141	0x3e489d56	0.19591269
142	0xbe38fc12	-0.18064907
143	0xbe21a63a	-0.15786067
144	0xbdd130a7	-0.10214358
145	0x3d905bbc	0.07048747
146	0xbd27bb14	-0.040949896
147	0xbe2c7bd9	-0.16844119
148	0xbe0bc388	-0.13648808
149	0x3e36357e	0.17793843
150	0x3e123f43	0.14281945
151	0x3e6ca89c	0.23111194
152	0x3b1bfb6a	0.0023800978
153	0xbe33f086	-0.17572221
154	0x3c8fb61f	0.017542897
155	0x3c1db01c	0.009624507
156	0x3e3ae4ba	0.18251315
157	0x3d776013	0.060394358
158	0x3e2c2bb0	0.1681354
159	0xbe2f6c59	-0.17131175
160	0x3c916814	0.017749824
161	0xbdab4771	-0.08363236
162	0x3e6dda7d	0.23227878
163	0x3c9c658f	0.019091396
164	0xbe18c811	-0.1492007
165	0xbdc123e1	-0.094306715
166	0xbe6222ec	-0.22083634
167	0x3e3dccc8	0.18535149
168	0x3dd99cdd	0.106256224
169	0xbe6997aa	-0.22811761
170	0xbcf09639	-0.029368507
171	0x3d034f9e	0.03205835
172	0xbe424c6f	-0.1897447
173	0xbd6e5cc6	-0.058193944
174	0x3d978a3a	0.073994115
175	0xbd9e0a61	-0.07716823
176	0x3c3d98be	0.011572061
177	0xbd89a45c	-0.06720802
178	0xbd245ca4	-0.04012741
179	0x3e1d5d1e	0.15367553
180	0x3e0854a4	0.13313538
181	0x3b8f1a2d	0.004367134
182	0x3e7a15ae	0.24422333
183	0x3ddf17e7	0.10893231
184	0x3dd029fb	0.10164257
185	0xbcff2903	-0.031147486
186	0xbe93162e	-0.2872786
187	0x3c9ff921	0.019527974
188	0xbd9231fd	-0.07138441
189	0xbd7693bf	-0.060199495
190	0xbe37c20f	-0.17945121
191	0x3e704854	0.23465091
192	0xbe17beab	-0.14818828
193	0xbdbb3e5c	-0.091427535
194	0x3d9196dd	0.07108853
195	0x3d3653e1	0.044513587
196	0x3e5ccd1c	0.21562618
197	0x3e262096	0.16223368
198	0xbe34da64	-0.17661434
199	0x3e355c97	0.17711101
200	0xbe054756	-0.13015494
201	0xbde4f01a	-0.11178608
202	0xbd1e8431	-0.038700286
203	0x39dc1e42	0.00041984214
204	0x3e47dfaf	0.19518922
205	0xbe039e18	-0.12853277
206	0xbda1b307	-0.07895475
207	0x3e4877bf	0.1957693
208	0xbe245beb	-0.16050689
209	0x3e57036c	0.20997399
210	0xbe4f1534	-0.20222932
211	0x3dfa6467	0.122261815
212	0x3e38c9e5	0.18045767
213	0xbcd41b13	-0.025891816
214	0xbe0f7aeb	-0.14011733
215	0xbe06b616	-0.13155398
216	0xbdb16a51	-0.08662856
217	0xbb5bf224	-0.0033561075
218	0xbd120adb	-0.035654884
219	0x3dc9196f	0.09819304
220	0x3d31529e	0.04329168
221	0x3d2be378	0.041964978
222	0x3d251fcd	0.04031353
223	0xbd08569d	-0.033285726
224	0x3d77610c	0.060395285
225	0x3e0ca3e9	0.13734402
226	0x3d8b5da9	0.06804974
227	0x3dfda93e	0.12385796
228	0xbe31053e	-0.17287156
229	0x3e011145	0.12604244
230	0x3de29096	0.11062734
231	0x3e601513	0.21883039
232	0x3e8bfef9	0.27342966
233	0xbe19b76d	-0.15011378
234	0x3da5a65f	0.080883734
235	0x3dc87a38	0.097889364
236	0x3e1057cd	0.14095993
237	0xbe312650	-0.17299771
238	0xbe606e44	-0.21917063
239	0x3d83914a	0.06424196
240	0xbe883305	-0.26601425
241	0x3d9f24a3	0.0777066
242	0x3dda11c6	0.10647921
243	0x3d064a71	0.032785837
244	0xbe0e58f3	-0.13901119
245	0x3e0e850f	0.13917945
246	0x3e73f5eb	0.23824279
247	0xbd404d56	-0.046948753
248	0xbdd44d9f	-0.103663675
249	0xbe24de79	-0.16100492
250	0xbe6281f1	-0.22119881
251	0x3e302e3c	0.17205137
252	0xbd6675c3	-0.05626465
253	0x3e12cb89	0.14335455
254	0xbde7498a	-0.11293323
255	0x3e396c5e	0.18107745

model.model.model.0.bias f4 [128]
0	0x3dbdc6a2	0.09266402
1	0xbdbfd4ca	-0.09366758
2	0x3e1e0775	0.15432532
3	0xbe1bcc33	-0.15214615
4	0xbe226ca0	-0.1586175
5	0x3dace16e	0.08441435
6	0xbdf959ed	-0.12175355
7	0xbd12d361	-0.035846118
8	0x3e56a4c6	0.20961294
9	0x3e48e83b	0.19619839
10	0x3e661b9b	0.22471468
11	0x3d901f4c	0.070372194
12	0xbe193403	-0.14961247
13	0x3e2b0230	0.16700053
14	0xbe05d777	-0.13070475
15	0x3df4a23b	0.119450055
16	0xbdc18224	-0.094486505
17	0xbd5824e0	-0.05276954
18	0xbdd5df87	-0.10443025
19	0x3d921ab2	0.07133998
20	0x3e801d47	0.25022337
21	0xbe1b6e86	-0.1517888
22	0x3e3765cb	0.17909925
23	0x3e3b909f	0.18316887
24	0x3e10faeb	0.14158218
25	0xbd8c7198	-0.06857604
26	0x3d37ed31	0.044903938
27	0x3e67f9e7	0.22653924
28	0x3e65aa79	0.22428311
29	0xbe380b0a	-0.17972961
30	0x3e61f085	0.22064407
31	0xbd78b385	-0.06071808
32	0xbe2e10cb	-0.16998594
33	0xbd81799c	-0.06322023
34	0x3ddbdf56	0.10735957
35	0x3e626a2d	0.22110815
36	0x3e701ef0	0.23449302
37	0x3e4059e1	0.18784286
38	0xbdce919c	-0.100863665
39	0x3cb8f5d7	0.022578163
40	0x3e08c1e4	0.13355213
41	0xbce50dea	-0.027960736
42	0xbe4f0bdb	-0.20219366
43	0xbe295a61	-0.16538383
44	0xbe04d034	-0.12970048
45	0x3d3ecac6	0.0465801
46	0xbcbfbb33	-0.023404693
47	0x3dcbb8f0	0.099473834
48	0x3de7867b	0.11304947
49	0x3da951ac	0.08267531
50	0x3b4cb604	0.003123642
51	0x3e5e7e53	0.21727876
52	0x3ce5257e	0.02797198
53	0xbcb8cd94	-0.022558965
54	0xbe3eccf4	-0.18632871
55	0xbd832133	-0.064028166
56	0x3e1b2a8d	0.1515295
57	0xbdd58026	-0.10424833
58	0xbddf76d1	-0.10911334
59	0x3d14c8f9	0.036324475
60	0x3e3fdf35	0.1873749
61	0x3e5a14f8	0.21297061
62	0xbdacc206	-0.084354445
63	0xbd9c69d0	-0.0763737
64	0x3e7f8daf	0.24956392
65	0x3dd43ded	0.10363374
66	0x3db6138c	0.08890447
67	0xbca6b351	-0.020349177
68	0x3d8558b5	0.0651106
69	0x3e1e5bd4	0.15464717
70	0x3e75aee3	0.23992495
71	0xbda13c8d	-0.07872877
72	0x3e0a86f8	0.13528049
73	0xbe0d60de	-0.13806483
74	0x3d17e20b	0.037080806
75	0xbe07dcba	-0.13267794
76	0x3d957050	0.072968125
77	0xbac59edc	-0.0015077251
78	0x3cf56fa2	0.029960457
79	0xbe30eb4f	-0.17277263
80	0xba255af8	-0.0006307806
81	0x3c147649	0.0090614045
82	0x3e1bbfc6	0.15209875
83	0xbd69a5df	-0.057042953
84	0x3c824371	0.0159013
85	0x3e0d1850	0.13778806
86	0x3e0188ed	0.1264989
87	0x3e4438aa	0.1916224
88	0x3e3b9374	0.18317968
89	0x3d61ff49	0.0551751
90	0x3e2d5aa0	0.16929102
91	0x3c867a95	0.016415874
92	0x3e651ec9	0.22375025
93	0x3e2e2a88	0.17008412
94	0x3e106d5f	0.14104222
95	0xbd75534b	-0.059893887
96	0xbdce7770	-0.10081375
97	0x3d9486e5	0.072522916
98	0xbccce7e3	-0.025012916
99	0x3c4da1c3	0.012550774
100	0x3e04d4fa	0.12971869
101	0xbe5810be	-0.21100137
102	0x3e29ac40	0.16569614
103	0x3e2d67a7	0.16934071
104	0x3db19ef7	0.08672898
105	0xbdbbedc9	-0.09176213
106	0x3c356417	0.011071227
107	0x3d408f02	0.047011383
108	0xbe2e71a5	-0.1703554
109	0xbcb22ee8	-0.021750882
110	0xbe01f11d	-0.12689634
111	0x3c9c092b	0.01904734
112	0x3d6b6740	0.057471514
113	0x3df3f749	0.119124
114	0xbb4bea6e	-0.0031115073
115	0x3e0f45c3	0.13991456
116	0xbd25ae24	-0.040449277
117	0xbe0fade8	-0.14031184
118	0xbe622e4a	-0.2208797
119	0x3cc4c1dd	0.024018222
120	0x3e1f6f58	0.15569818
121	0xbde05f7a	-0.10955711
122	0x3e342722	0.17593053
123	0x3e757388	0.23969853
124	0x3d02a50d	0.031895686
125	0x3dca7a2e	0.09886585
126	0x3e391aef	0.1807668
127	0x3ca007b1	0.019534918

model.model.model.2.weight f4 [128, 128]
0	0x3d9e8cb4	0.07741681
1	0xbd30635c	-0.043063506
2	0xbd0a4b12	-0.033763
3	0x3cf9df96	0.030502122
4	0xbdd55ec0	-0.10418463
5	0xbd06c8ff	-0.03290653
6	0xbd80dace	-0.06291734
7	0xbd768dd6	-0.06019386
8	0xbcba4d73	-0.022742009
9	0x3c041e4f	0.008063867
10	0xbd677c58	-0.056515068
11	0x3d27cd76	0.040967427
12	0x3d8d9b93	0.06914439
13	0xbd47926b	-0.04872362
14	0x3ddf79ed	0.10911927
15	0xbd4e2456	-0.05032762
16	0x3d887688	0.06663233
17	0xbcee3f0c	-0.029082797
18	0xbd9fcdb3	-0.07802906
19	0x3d446742	0.047950037
20	0x3d46ea14	0.048563078
21	0x3dd36b84	0.10323241
22	0x3d9d5771	0.07682694
23	0xbd896f87	-0.06710725
24	0x3cd2b95d	0.025723154
25	0xbd66e3bb	-0.056369524
26	0xbcace025	-0.021102974
27	0xbd9bd651	-0.07609237
28	0x3cf4306d	0.029808247
29	0x3dc586ca	0.096448496
30	0xbd059747	-0.032614972
31	0x3dd6045e	0.10450052
32	0x3cd75dc5	0.02628983
33	0x3d6a8514	0.05725582
34	0x3c1d90e3	0.009617063
35	0x3d800009	0.06250007
36	0xbcf2917c	-0.029610388
37	0x3dd7e626	0.10541944
38	0x3d12b1a2	0.035813935
39	0xbdcd0849	-0.10011346
40	0xbc3cf1a7	-0.011532224
41	0x3aaf2b21	0.0013364294
42	0xbd70ec3b	-0.058819037
43	0x3d155532	0.0364582
44	0xbcb9afc0	-0.022666812
45	0x3d743351	0.05961925
46	0x3dcd0dbd	0.10012386
47	0xbc969db9	-0.018385755
48	0xbc417257	-0.011807046
49	0xbd3642c6	-0.044497274
50	0xbdb8cffc	-0.09024045
51	0x3dbc381a	0.09190388
52	0xbce1a319	-0.027543591
53	0xbc5b3bf8	-0.013380997
54	0xbd51f6fb	-0.05126093
55	0x3d3cfc2d	0.04613893
56	0xbc9be7ef	-0.019031493
57	0x3d8c7670	0.06858528
58	0xbdaef9c3	-0.08543732
59	0x3cbe4f16	0.02323107
60	0xba052290	-0.00050786976
61	0x3d89ddf8	0.0673179
62	0x3cf0f0d4	0.02941171
63	0x3cf69340	0.030099511
64	0xbd91fe9b	-0.0712864
65	0xbd77a2c5	-0.060457963
66	0x3dabdf84	0.083922416
67	0xbcfa3af7	-0.030545695
68	0x3caff5c4	0.021479495
69	0x3cc66be0	0.02422136
70	0x3cfd325f	0.030907808
71	0x3b16dcd4	0.0023019807
72	0x3c8ea801	0.017414095
73	0x3ad7bc1e	0.0016459262
74	0x3dba6ce4	0.091028005
75	0xbb9f8ccf	-0.0048690806
76	0x3d665fc0	0.056243658
77	0x3d2e9c6f	0.042629655
78	0xbcd54332	-0.026033018
79	0x3d892ca4	0.06697968
80	0x3be663f4	0.0070309583
81	0x3cfc4355	0.030793825
82	0x3ce3abaa	0.027791817
83	0xbce8b9db	-0.028408935
84	0xbc9e5e79	-0.019332157
85	0xbdc25810	-0.09489453
86	0xbd9d312e	-0.07675396
87	0x3dc12c8d	0.094323255
88	0x3dc4e6ec	0.09614357
89	0x3c83b129	0.016075687
90	0xbc00675e	-0.007837145
91	0x3dab33d6	0.08359496
92	0xbdaf2576	-0.08552067
93	0x3d0f7f12	0.035033293
94	0x3d6fc231	0.058534805
95	0x3d845014	0.06460586
96	0x3d632a58	0.055460304
97	0x3d7d8bf1	0.061901037
98	0x3d56fe70	0.052488744
99	0xbc87ea97	-0.016591353
100	0x3cfcc7c5	0.030856976
101	0xbdcb272b	-0.0991958
102	0x3cc5696f	0.024098126
103	0x3d2fc712	0.042914458
104	0x3ced7a17	0.028988881
105	0xbcdce099	-0.026962565
106	0xbd590c98	-0.052990526
107	0xbd95af7a	-0.0730886
108	0x3db2f72d	0.08738551
109	0x3ca60adf	0.020268856
110	0xbc23c70a	-0.009996185
111	0x3cdf92e2	0.027291719
112	0xbdc857b7	-0.09782355
113	0x3da09523	0.078409456
114	0xbd8b25e2	-0.06794335
115	0x3d73c1e6	0.059511088
116	0xbd6d2e60	-0.057905555
117	0x3db2223d	0.08697937
118	0x3d85e3df	0.065376036
119	0x3c04aa38	0.008097224
120	0x3cf59d2c	0.029982172
121	0xbd8a92fd	-0.06766317
122	0x3d5192ed	0.05116551
123	0x3d897f1e	0.06713699
124	0x3d2b5bfb	0.041835766
125	0x3c6c8312	0.0144355465
126	0x3d8dc12e	0.06921612
127	0xbd6b177c	-0.057395443
128	0x3d700aa3	0.058603894
129	0x3d3f50f6	0.04670807
130	0xbc2c3cb7	-0.010512522
131	0xbbb49474	-0.005510861
132	0xbd03f82a	-0.03221909
133	0xbd9234d9	-0.07138986
134	0xbd87d246	-0.06631903
135	0x3d5e62a3	0.054293286
136	0x3d4be60e	0.049779944
137	0x3da2e3ba	0.07953592
138	0x3db79059	0.08963079
139	0x3d8f0f9b	0.069853984
140	0xbca4082c	-0.020023428
141	0x3dc6e971	0.09712494
142	0xbdd8aaa9	-0.10579426
143	0x3d9942d6	0.07483451
144	0x3d9576c6	0.07298045
145	0xbca0c246	-0.019623887
146	0x3d880103	0.06640818
147	0xbd367343	-0.044543516
148	0xbd87735c	-0.066138
149	0xbd1226cc	-0.03568153
150	0xbce90948	-0.028446808
151	0x3d8db83b	0.06919905
152	0x3d09c99d	0.03363954
153	0x3da9acde	0.08284925
154	0xbc601f30	-0.013679311
155	0x3cf72690	0.030169755
156	0x3c8aa971	0.0169265
157	0x3d34ef1e	0.044173352
158	0xbdc1d265	-0.09463958
159	0x3ca5d035	0.020240882
160	0xbdcce2d3	-0.10004201
161	0x3dbf6644	0.093456775
162	0x3ba0ad97	0.004903506
163	0x3d39fa32	0.04540462
164	0xbcaf6199	-0.021408843
165	0xbd16f211	-0.036851946
166	0x3cdf5b1b	0.027265122
167	0xbd17a83b	-0.03702567
168	0x3c9e32f1	0.0193114
169	0x3c2836aa	0.010266939
170	0xbde4b5f9	-0.11167521
171	0x3d9faa99	0.07796211
172	0x3dcc815c	0.09985611
173	0xbdf94763	-0.12171819
174	0x3d852dd2	0.0650288
175	0x3d139fa5	0.03604092
176	0xbdc1136a	-0.09427531
177	0x3cac6c5b	0.021047762
178	0xbd8dcef4	-0.06924239
179	0x3d6e3abb	0.05816148
180	0xbd10faf1	-0.035395566
181	0xbb1417a2	-0.0022597094
182	0xbc1264b9	-0.008935147
183	0xbd1a0ffb	-0.037612896
184	0x3dfa81a0	0.12231755
185	0xbc8bb204	-0.017052658
186	0x3d38445f	0.04498708
187	0x3d2ccc46	0.042186998
188	0xbcbe6895	-0.023243228
189	0xbcc40e16	-0.023932498
190	0x3cdf846f	0.027284829
191	0x3cfabe23	0.030608242
192	0x3dacddb1	0.08440722
193	0x3d1698f6	0.03676697
194	0x3d2be2fd	0.04196452
195	0x3d5bbfef	0.05364984
196	0xbda438ff	-0.08018684
197	0xbd9323e9	-0.07184584
198	0xbc3816cd	-0.011235905
199	0x3d3f4a0e	0.046701483
200	0x3d85e22d	0.0653728
201	0x3d61c737	0.055121627
202	0x3d47d841	0.04879022
203	0x3be2cc1f	0.006921306
204	0x3c5dd61a	0.013539815
205	0x3de93e7e	0.113888726
206	0xbd70670a	-0.058692016
207	0x3df870aa	0.12130864
208	0xbbded4f2	-0.0068002874
209	0x3d7717fd	0.06032561
210	0xbc03e981	-0.008051277
211	0x3d5dcc50	0.054149926
212	0x3db10965	0.0864437
213	0xbd9360da	-0.07196207
214	0x3d3583d4	0.044315174
215	0x3d4d2c5c	0.050091133
216	0x3db4ac08	0.08821875
217	0x3cdd079b	0.026981166
218	0x3d81d567	0.063395314
219	0x3dbf8642	0.093517795
220	0xbd862000	-0.06549072
221	0x3cc9c8eb	0.024631938
222	0x3cfa29a9	0.030537443
223	0xbc694b9f	-0.014239221
224	0xbcf7d208	-0.030251518
225	0x3d2e51b6	0.042558394
226	0xbd72da32	-0.05929012
227	0xbd1d467b	-0.038397294
228	0xbccf7a04	-0.025326736
229	0x3bb1bff3	0.0054244935
230	0x3ce7e7d9	0.028308796
231	0x3c9cfa8f	0.019162444
232	0x3cc859c1	0.02445686
233	0x3d73715e	0.059434287
234	0x3d3f0eb6	0.04664489
235	0xbd18190d	-0.037133265
236	0x3dcfaba0	0.10140157
237	0xbca312f3	-0.019906497
238	0xbca26b8d	-0.019826675
239	0xbd50f700	-0.051016808
240	0xbd70629c	-0.05868779
241	0x3dc1261b	0.09431096
242	0x3c951131	0.018196674
243	0x3deba60f	0.115062825
244	0xbde352e1	-0.11099792
245	0x3d75a15f	0.05996835
246	0x3d88bbb0	0.066764235
247	0x3cbc7c2d	0.02300843
248	0xbda3f174	-0.08005038
249	0xbd4f88ea	-0.05066768
250	0xbbc0136b	-0.00586169
251	0xbdd6e0e2	-0.10492112
252	0xbd88d7eb	-0.06681808
253	0xbd85aa41	-0.06526614
254	0xbc55246a	-0.01300917
255	0xbbb0235b	-0.0053753085

model.model.model.2.bias f4 [128]
0	0x3dac4f34	0.08413544
1	0x3c70f263	0.014706227
2	0xba2895ef	-0.0006431033
3	0x3b8524b1	0.004063212
4	0xbd6b43c1	-0.057437662
5	0xbca85228	-0.020546988
6	0xbbf63a90	-0.0075143054
7	0x3c500a13	0.012697714
8	0x3cc64679	0.024203526
9	0x3d10dd52	0.035367317
10	0x3d213dbf	0.039365526
11	0x3c0396aa	0.008031527
12	0x3c01229e	0.007881789
13	0x3d81b48d	0.063332655
14	0xbd0bb9a4	-0.034112588
15	0xbc7de1e1	-0.015495748
16	0x3db86884	0.0900431
17	0xbd879409	-0.06620032
18	0x3ca6829e	0.020325955
19	0x3c1e7243	0.009670797
20	0xbd478dd2	-0.048719235
21	0x3da43c40	0.08019304
22	0xbd1f8738	-0.038947314
23	0x3d195d4a	0.037442483
24	0xbc2ca0b8	-0.010536365
25	0x3c84e6ab	0.016223272
26	0x3afdfdf6	0.0019378054
27	0xbd681f87	-0.05667069
28	0x3d8d0cb2	0.06887187
29	0x3d81b21e	0.06332801
30	0x3db5808d	0.0886241
31	0x3d174c95	0.03693827
32	0x3d84cb66	0.06484108
33	0xbcdae4fe	-0.02672052
34	0x3db08395	0.08618847
35	0xbd261b39	-0.040553305
36	0xbc4a4637	-0.012345842
37	0xbd55ab49	-0.052165303
38	0x3cd69fce	0.026199248
39	0x3d8dd4fd	0.0692539
40	0x3cd30094	0.025757112
41	0xbd5efb74	-0.054439023
42	0xbcb8a159	-0.022537874
43	0xbccfa419	-0.025346803
44	0xbd2407f9	-0.040046666
45	0xbd7408d6	-0.05957874
46	0xbd34031d	-0.04394828
47	0xbd97e2cc	-0.07416305
48	0xbd96878b	-0.073500715
49	0xbd3e1276	-0.046404324
50	0x3d72dd87	0.059293296
51	0x3dcccfca	0.1000057
52	0xbc592597	-0.013253591
53	0xbb850056	-0.004058878
54	0x3d8f0029	0.069824524
55	0xbd8d8af2	-0.06911267
56	0xbb7d506d	-0.0038652674
57	0x3cfa4976	0.030552607
58	0x3ce33cbe	0.027738925
59	0xbd8e8706	-0.069593474
60	0x3c34d8c4	0.011038009
61	0x3dd3d1a5	0.10342721
62	0xbd0ac2a1	-0.03387702
63	0xbd1bcc8b	-0.038036864
64	0xbd8b9255	-0.0681502
65	0x3da554b2	0.08072795
66	0x3c011812	0.007879274
67	0x3d4cabd9	0.049968574
68	0x3d56fc0e	0.05248647
69	0x3d8cf25a	0.068821624
70	0x3d9a2150	0.07525885
71	0x3d2880b9	0.041138384
72	0x3c608f8e	0.013706101
73	0xbd91f0be	-0.07125996
74	0xbbb12b45	-0.0054067695
75	0xbc74553c	-0.0149129
76	0x3c86b18d	0.016442085
77	0x3d3c8831	0.04602832
78	0x3ca24a29	0.019810753
79	0x3d1dc993	0.038522314
80	0x3d9f187b	0.07768341
81	0xbd9844e5	-0.074350156
82	0xbd83c5fc	-0.06434247
83	0xbd9dc272	-0.07703103
84	0x3df05dbb	0.11736628
85	0xbd2df9e6	-0.04247465
86	0x3d702e8d	0.058638144
87	0x3c8b1f0f	0.016982583
88	0x3dc00747	0.09376388
89	0x3da72521	0.08161379
90	0xbd972b71	-0.07381333
91	0x3dc2712b	0.09494241
92	0x3c53ebf9	0.012934678
93	0x3abae651	0.0014259313
94	0x39d88d8a	0.00041304185
95	0xbad0ebb9	-0.0015939391
96	0xbd73a38e	-0.05948215
97	0x3d5eb08c	0.054367587
98	0x3d7519b9	0.059838984
99	0xbd858916	-0.06520288
100	0x3bfc0abd	0.00769171
101	0x3dbba37c	0.091620415
102	0xbd4bfd37	-0.04980203
103	0x3be081ad	0.006851396
104	0x3d582dfd	0.052778233
105	0xbd9dc4a5	-0.077035226
106	0x3d82d5f0	0.063884616
107	0x3d66af1d	0.056319345
108	0xbd64605f	-0.05575597
109	0x3c7c1811	0.015386597
110	0x3d6f680d	0.05844884
111	0x3da21b65	0.07915381
112	0x3c9bc589	0.01901509
113	0xbd97ac5a	-0.0740592
114	0xbd63be6f	-0.055601534
115	0x3bcc1728	0.0062283464
116	0xbd60586f	-0.054771837
117	0xbd1debbf	-0.038554903
118	0x3d868907	0.06569105
119	0xbd08c06d	-0.033386637
120	0x3d83b32c	0.06430659
121	0x3db4ba3f	0.08824586
122	0xbb6b96a9	-0.0035947955
123	0xbd910122	-0.07080294
124	0x3cd3cd0c	0.02585461
125	0xbc6d351a	-0.014477992
126	0xbd9e9364	-0.07742956
127	0x3dace526	0.08442144

model.model.model.4.weight f4 [128, 128]
0	0xbd664a18	-0.056223005
1	0x3d8ff48d	0.07029066
2	0xbb2d8374	-0.0026476057
3	0xbc6d1ed0	-0.014472678
4	0xbd61d40a	-0.055133857
5	0x3b08c317	0.0020868236
6	0xbda8d939	-0.08244557
7	0xbdc55c51	-0.096367486
8	0x3d983afb	0.07433125
9	0x3d6d7375	0.057971437
10	0xbd3702c4	-0.044680372
11	0x3d42feff	0.047606464
12	0xbce45202	-0.027871136
13	0x3da6eefb	0.08151051
14	0x3d715a11	0.058923785
15	0x3d5a17bc	0.05324529
16	0x3ce2ad5f	0.02767056
17	0xbd01b655	-0.031668026
18	0x3d5d2779	0.053992722
19	0x3d8dbab2	0.06920375
20	0xbd06e005	-0.032928485
21	0x3dfd4538	0.12366718
22	0xbc590d44	-0.013247792
23	0x3d555b4d	0.052089024
24	0xbd29551a	-0.041340925
25	0x3dbf7f95	0.09350506
26	0xbd205359	-0.039141987
27	0x3a3acc6f	0.00071258
28	0x3e051fd4	0.13000423
29	0xbcaa5aaf	-0.020795194
30	0xbda3c1fb	-0.07995983
31	0x3d5c1772	0.053733297
32	0xbd2171b6	-0.039415084
33	0x3b76a83b	0.0037636894
34	0x3d24c9b9	0.04023144
35	0xbd303475	-0.043018777
36	0x3b323829	0.0027194119
37	0xba10cef9	-0.00055240054
38	0xba06082a	-0.0005112911
39	0x3cfc74f1	0.03081748
40	0x3d97f4b4	0.0741972
41	0xbcba7f84	-0.022765882
42	0x3ccb8ba5	0.024846861
43	0x3db67de4	0.089107305
44	0xbda48f0d	-0.08035097
45	0xbd29bfec	-0.041442797
46	0xbdae544e	-0.085121736
47	0x3ca1ff55	0.019775072
48	0xbd09dd07	-0.033658054
49	0x3dc23e44	0.094845325
50	0x3c80a3d0	0.015703112
51	0x3dad5e02	0.08465196
52	0xbc7cbdab	-0.01542608
53	0xbd8971ec	-0.06711182
54	0xbd6088e9	-0.054818068
55	0xbd14b7be	-0.036308043
56	0x3d4af193	0.04954679
57	0xbd105e92	-0.03524644
58	0xbd41f82f	-0.047355827
59	0xbd63ea91	-0.05564362
60	0xbd168ef0	-0.03675741
61	0xbbc22157	-0.0059243846
62	0x3d41b188	0.047288448
63	0x3ddd56a9	0.10807545
64	0xbd6fe5e1	-0.05856884
65	0x3dd02d10	0.10164845
66	0x3d5ebc91	0.05437905
67	0xbd89952e	-0.06717907
68	0xbd9b5724	-0.0758498
69	0x3c8ce0fe	0.017197128
70	0x3d8ee204	0.06976703
71	0x3dc699a1	0.09697271
72	0xbd5fefb3	-0.054671954
73	0x3cd2a641	0.025714042
74	0xbd202032	-0.039093204
75	0xbc667853	-0.0140667735
76	0xbcc22847	-0.023700846
77	0x3d8a92f9	0.06766314
78	0xbcac9b1f	-0.021070061
79	0x3daf3399	0.08554763
80	0x3ddfd564	0.10929373
81	0xbd844be3	-0.06459787
82	0xbd33e2be	-0.04391741
83	0xbc907c74	-0.017637469
84	0x3d95c891	0.07313646
85	0x3d95a16f	0.07306182
86	0x3cb1dcac	0.02171167
87	0xbc2aa4eb	-0.010415296
88	0xbc909ee6	-0.017653894
89	0xbd8ff75f	-0.07029604
90	0x3da2cece	0.07949601
91	0xbae356e4	-0.0017344621
92	0xbd0414d6	-0.032246433
93	0x3cbd00cd	0.02307167
94	0xbd8a908a	-0.0676585
95	0x3d0d6829	0.034523163
96	0x3d385c55	0.04500993
97	0x3cf7a984	0.030232199
98	0x3dba1066	0.09085159
99	0x3d8f5339	0.06998295
100	0x3d09ebb5	0.033672053
101	0x3e0a4b49	0.13505282
102	0x3ca27a19	0.019833611
103	0xbc7677a2	-0.015043171
104	0x3dff1f2f	0.1245712
105	0xbdcf7efb	-0.101316415
106	0xbd92afce	-0.07162438
107	0xbd09d53e	-0.03365063
108	0x3d4372e7	0.047717
109	0x3d68afae	0.056808166
110	0xbcf21a06	-0.029553425
111	0x3dbe792a	0.09300454
112	0xbd85b0d3	-0.06527867
113	0x3df83f00	0.12121391
114	0x3d498298	0.04919681
115	0xbda93625	-0.082622804
116	0x3cba4053	0.02273575
117	0xbd2df0b6	-0.042465888
118	0x3d6e761f	0.058218118
119	0x3c46bd08	0.0121300295
120	0x3d4d9233	0.050188255
121	0x3cc45786	0.023967516
122	0xbd969c83	-0.07354071
123	0x3cde3f8a	0.027129907
124	0x3ad7cea2	0.001646478
125	0xbd036ff4	-0.03208919
126	0xbd1f104e	-0.03883391
127	0x3d6347c5	0.055488367
128	0xbc449939	-0.011999422
129	0x3cb1ac20	0.02168852
130	0xbdd356b7	-0.10319274
131	0x3d77c24e	0.060488038
132	0x3db39dbc	0.0877032
133	0x3cbcd87e	0.02305245
134	0xbe0168e2	-0.12637666
135	0x3d8e41b1	0.069461234
136	0xbd2d9a18	-0.042383283
137	0x3bd7a7ed	0.0065812976
138	0x3d39155e	0.045186393
139	0x3d3df084	0.04637195
140	0xbe05c11d	-0.13061948
141	0x3d1d4f4b	0.038405698
142	0x3dd1b41e	0.10239433
143	0xbdaeef9e	-0.08541797
144	0x3ae48463	0.0017434474
145	0x3cc7e644	0.024401791
146	0xbdcd918a	-0.10037525
147	0x3d7830f8	0.060593575
148	0x3e0e6612	0.13906124
149	0xbc999a38	-0.018750295
150	0x3d5d56a5	0.05403771
151	0x3bc584cb	0.006027793
152	0x3d431cde	0.04763495
153	0x3cb7fd43	0.022459632
154	0x3da2d309	0.07950408
155	0xbd96aee1	-0.07357574
156	0x3d103153	0.03520329
157	0xbdd7db89	-0.1053992
158	0x3da444c9	0.08020932
159	0x3dae2b42	0.085043445
160	0xbe08bf75	-0.13354285
161	0xbdae2564	-0.085032254
162	0x3d4e2acc	0.050333783
163	0xbdde38ea	-0.10850699
164	0xbd653786	-0.055961154
165	0x3ca5026e	0.02014276
166	0xbb08b032	-0.0020856974
167	0xbd449ed9	-0.04800305
168	0x3da87976	0.08226292
169	0x3d15dc55	0.036587078
170	0x3e0a3a83	0.13498883
171	0x3cf47ef4	0.029845692
172	0x3d90fe2b	0.07079729
173	0xbdd5a4b7	-0.104318075
174	0xbdc63eaf	-0.09679925
175	0xbdf84d43	-0.121241115
176	0x3dad5055	0.08462588
177	0x3dd49945	0.10380796
178	0x3cf221bf	0.029557107
179	0x3d568584	0.052373424
180	0xbd3b7d1e	-0.045773618
181	0x3d919226	0.07107954
182	0x3d8636d6	0.06553428
183	0x3b9e2041	0.0048256223
184	0x3d1270b1	0.035752002
185	0xbbab94ee	-0.0052362597
186	0xbce887c2	-0.028385047
187	0x3dca5378	0.09879202
188	0xbdac5ee2	-0.08416535
189	0xbc9d3afc	-0.019193165
190	0xbd80c756	-0.0628802
191	0xbba61ecb	-0.005069589
192	0x3d9c99bf	0.07646512
193	0xbd2d0c47	-0.042248037
194	0xbd44aa46	-0.048013948
195	0xbdb09907	-0.08622938
196	0xbc93563c	-0.017985456
197	0xbd395853	-0.04525025
198	0x3daa49a0	0.08314824
199	0x3d0a6ec0	0.033797026
200	0xbd7ebe77	-0.06219336
201	0xbd216daf	-0.039411243
202	0x3d5ec82f	0.05439013
203	0x3c9d6a8d	0.019215846
204	0x3d856c9a	0.06514855
205	0x3d84fa1d	0.06493018
206	0xbd74d37f	-0.05977201
207	0x3ca22216	0.019791644
208	0xbd7c9bee	-0.061672144
209	0xbcf5e38e	-0.030015733
210	0xbd1d945f	-0.038471576
211	0xbc850f2c	-0.016242586
212	0x3d8407ea	0.06446822
213	0xbdb0c541	-0.08631373
214	0x3d0c4725	0.034247536
215	0xbcd82a6e	-0.02638742
216	0x3dc17d55	0.09447733
217	0x3bb939d1	0.005652644
218	0x3df39226	0.1189311
219	0x3d166ac9	0.036722932
220	0x3d3f78a3	0.046745908
221	0x3ccb9f51	0.024856241
222	0x3d21c89b	0.039497953
223	0xbddc9afd	-0.10771749
224	0x3e09f673	0.13472919
225	0x3d9dae53	0.07699265
226	0x3d89dea9	0.06731922
227	0x3daae0d5	0.083436646
228	0x3d2a8138	0.04162714
229	0x3c8142cc	0.015778922
230	0x3d7e6bbb	0.06211446
231	0x3a2b98e9	0.0006545918
232	0x3da4c64f	0.08045637
233	0x3d025a36	0.031824313
234	0x3da86e98	0.08224219
235	0xbd7f4981	-0.06232596
236	0xbda0c494	-0.07849994
237	0x3dc20c51	0.094750054
238	0xbccb6821	-0.024829926
239	0x3c32a911	0.010904566
240	0x3d8fed83	0.07027724
241	0x3c667159	0.01406511
242	0xbb82bb83	-0.0039896383
243	0x3d0dd684	0.034628406
244	0xbca64e39	-0.020300971
245	0x3d184b81	0.03718138
246	0x3d9c9a37	0.07646602
247	0xbd4ac504	-0.049504295
248	0xbc3b0691	-0.01141514
249	0xbca8c9d2	-0.020604048
250	0xbd8abc00	-0.067741394
251	0x3ddf40e0	0.10901046
252	0xbd73dfa8	-0.059539467
253	0xbc33e195	-0.010979076
254	0x3ddf9fb9	0.109191366
255	0xbce71dbe	-0.028212424

model.model.model.4.bias f4 [128]
0	0x3d06015e	0.032716148
1	0xbd76620a	-0.06015209
2	0x3c589396	0.013218781
3	0x3d856abb	0.06514498
4	0x3d02c520	0.031926274
5	0xbcd58f82	-0.026069406
6	0x3d100d98	0.035169214
7	0xbdacb497	-0.08432882
8	0x3afe3a3d	0.0019396018
9	0x3d2a6b6a	0.041606344
10	0x3d0a61b3	0.03378458
11	0xbc3ca8bb	-0.011514838
12	0xbd52c3fb	-0.051456433
13	0x3cd1cbad	0.025609815
14	0xbd876c18	-0.06612414
15	0x3cc04773	0.02347157
16	0xbd177935	-0.036980826
17	0x3d01939a	0.031634904
18	0x3d97d16d	0.07412992
19	0x3d558902	0.052132614
20	0x3ceb906b	0.028755387
21	0xbd43ffab	-0.047851246
22	0x3da10dfc	0.078639954
23	0x3b00c3c0	0.0019647926
24	0x3d18c207	0.037294414
25	0xbcbf0f55	-0.02332274
26	0x3d1bd775	0.038047273
27	0x3d823cc5	0.06359247
28	0x3d57d3b4	0.05269213
29	0x3d339974	0.043847516
30	0xbc92a24b	-0.017899653
31	0x3dc72bd9	0.0972516
32	0xbd08ac7b	-0.033367615
33	0x3ca3a77c	0.019977324
34	0x3dbfbb31	0.09361876
35	0xbd3eabe8	-0.04655066
36	0x3d1b08b9	0.037850115
37	0x3d9607cd	0.07325707
38	0x3d424e1e	0.04743778
39	0x3d478d84	0.048718944
40	0x3d882817	0.066482715
41	0x3948827a	0.00019122093
42	0xbda49d23	-0.08037784
43	0xbd498024	-0.04919447
44	0x3d0c8ddc	0.034314975
45	0x3d594bd3	0.053050827
46	0x3d7f3df7	0.062314954
47	0x3daeeea0	0.08541608
48	0xbd9d66a0	-0.0768559
49	0xbd9cd480	-0.07657719
50	0xbd19f0d5	-0.03758319
51	0xbbf551ea	-0.0074865716
52	0x3d26bbd9	0.04070649
53	0x3bd31ea2	0.0064428607
54	0x3d4298b3	0.047508907
55	0xbd1d408e	-0.038391642
56	0xbbf80e03	-0.0075700297
57	0xbd93340e	-0.07187663
58	0xbd4190b0	-0.047257125
59	0x3d260782	0.040534504
60	0x3d100955	0.03516515
61	0xbd0a3bc4	-0.033748403
62	0xbcf42d1e	-0.02980667
63	0x3d8b9e98	0.06817359
64	0xbc9ba477	-0.018999321
65	0xbd932fea	-0.07186873
66	0x3d3a076a	0.045417227
67	0x3d2d5cf2	0.042324968
68	0xbc05a2ce	-0.008156491
69	0x3d93120e	0.07181178
70	0x3cc7057f	0.024294613
71	0xbc1a4d37	-0.0094178235
72	0xbdc97fa6	-0.098388
73	0x3d83e31c	0.06439802
74	0xbd876fdf	-0.066131346
75	0x3d997883	0.07493689
76	0x3d12c048	0.035827905
77	0xbced2b83	-0.028951412
78	0x3c4555d2	0.012044387
79	0xbd4f859c	-0.05066453
80	0xbd0c688f	-0.034279402
81	0xbcbdfa44	-0.023190625
82	0xbcd1509d	-0.025551135
83	0xb9c9959d	-0.00038449178
84	0xba178bce	-0.00057810254
85	0xbd8b36bf	-0.06797551
86	0xbd4e9e17	-0.050443735
87	0xbb26abb4	-0.0025431933
88	0xbcfbe0f7	-0.03074692
89	0xbdb309f9	-0.087421365
90	0xbd607c48	-0.054806024
91	0xbb834713	-0.0040062754
92	0xbd9b3463	-0.07578351
93	0x3d06ab13	0.032877993
94	0xbda3ea0d	-0.08003626
95	0xbd499865	-0.0492176
96	0x3d79d1c2	0.060991056
97	0xbd5b8c54	-0.053600624
98	0xbd8b6a13	-0.068073414
99	0xbda3333a	-0.07968755
100	0x3d6905a0	0.05689013
101	0xbccae9f3	-0.024769759
102	0xbdae4192	-0.085086
103	0x3cdc601d	0.0269013
104	0xbd906ad7	-0.07051628
105	0x3d96173d	0.07328651
106	0xbd2f2caf	-0.042767223
107	0x3d0b2dbd	0.033979166
108	0xbd1f6e87	-0.038923766
109	0xbab3435b	-0.001367669
110	0xbd0e0f2d	-0.03468244
111	0x3d82f74a	0.06394823
112	0xbd229689	-0.039694343
113	0xbd705669	-0.058676157
114	0xb9f51f3e	-0.0004675332
115	0xbda80d2c	-0.08205637
116	0xbc1ea7d4	-0.009683568
117	0xbc17c334	-0.009262849
118	0x3d1d66b5	0.038428027
119	0xbd697068	-0.056991965
120	0x3de49d1e	0.1116278
121	0x3cfc9fe9	0.03083797
122	0x3d09ae80	0.03361368
123	0x3cd8d7cb	0.026470086
124	0x3d534831	0.05158252
125	0x3d22d902	0.039757736
126	0xbd4b2488	-0.049595386
127	0x3d84c9f9	0.06483836

model.model.model.6.weight f4 [128, 128]
0	0xbd496227	-0.04916587
1	0xbd2aa8d8	-0.04166493
2	0xbb929c43	-0.0044741943
3	0x3d266d19	0.040631387
4	0x3d9cab13	0.07649817
5	0xbd241a51	-0.04006416
6	0xbd01c456	-0.03168138
7	0x3cc7aa4c	0.024373196
8	0xbc31009e	-0.01080337
9	0xbd0b7e04	-0.034055725
10	0xbbaf5b35	-0.005351449
11	0x3c0f159a	0.008733178
12	0xbd2e2e00	-0.042524338
13	0xbc8741fd	-0.016510958
14	0x3d274a29	0.04084221
15	0xbb81f886	-0.003966394
16	0xbd11ac50	-0.03556472
17	0xbdbd400f	-0.09240734
18	0xbdd1e468	-0.10248643
19	0xbcdba705	-0.02681304
20	0x3dab8108	0.0837422
21	0x3d883183	0.066500686
22	0x3c2bda27	0.010489023
23	0xbd342ae2	-0.04398621
24	0x3d630bf2	0.055431314
25	0xbd096ca3	-0.03355087
26	0x3db29a7c	0.08720872
27	0x3dab1a36	0.08354609
28	0x3dc2863f	0.09498262
29	0xbcae1566	-0.021250438
30	0xbc2533ba	-0.010083133
31	0x3d24d4f0	0.040242136
32	0xbccafb7c	-0.02477812
33	0x3ce904c9	0.028444665
34	0x3da5101d	0.08059714
35	0xbdea56d7	-0.11442345
36	0xbd004fae	-0.03132599
37	0x3dbe497c	0.0929136
38	0x3d8ef0c3	0.069795154
39	0xbd5151d2	-0.05110342
40	0xbd874f61	-0.06606937
41	0xbd4e3152	-0.050340004
42	0x3da90747	0.08253341
43	0x3dd70d77	0.10500615
44	0x3d594e68	0.05305329
45	0xbd8cd2a8	-0.06876117
46	0xbd9c31b2	-0.07626666
47	0x3d9cd573	0.076579
48	0xbc7292d1	-0.014805512
49	0xbd734a13	-0.059396815
50	0x3d5550d5	0.05207904
51	0xbd5e6995	-0.05429991
52	0x3bc1aaee	0.005910269
53	0xbdbcca49	-0.0921827
54	0x3d233731	0.039847557
55	0xbd3c6785	-0.04599716
56	0x3ddba7f9	0.107253976
57	0x399ac436	0.00029519357
58	0x3d4c0964	0.049813643
59	0x3d88a833	0.066727065
60	0x3d3256b1	0.043539707
61	0x3da4438d	0.08020697
62	0xbd9c843a	-0.07642408
63	0x3c33c6eb	0.010972719
64	0x3cdb24e3	0.026750987
65	0x3d580fa2	0.052749284
66	0x3d995ac3	0.074880145
67	0xbcd59959	-0.026074098
68	0xbcee27da	-0.029071737
69	0x3d8dd38a	0.069251135
70	0xbda3d5ca	-0.079997614
71	0x3cf8dbbd	0.030378217
72	0xbbad4676	-0.0052879406
73	0x3dc074c6	0.09397273
74	0xbbb35776	-0.0054730726
75	0x3d0721d9	0.032991264
76	0x3d2f1058	0.042740196
77	0xbdb4ac94	-0.08821979
78	0xbce8419a	-0.028351594
79	0xbe188ea7	-0.14898168
80	0x3d58b850	0.05291015
81	0x3ce59f38	0.028030023
82	0x3da64597	0.08118742
83	0xbc3fe85a	-0.011713112
84	0x3cbc882c	0.02301415
85	0x3d43e023	0.047821175
86	0x3d4482c6	0.047976278
87	0x3d02dd47	0.031949308
88	0xbccffddd	-0.025389606
89	0x3c9da4e7	0.01924367
90	0x3cd48217	0.025940938
91	0x39758dc0	0.00023417827
92	0xbd0e788c	-0.03478293
93	0xbd95d829	-0.0731662
94	0x3da5ff5a	0.08105345
95	0xbde31a3d	-0.11088989
96	0x3dc50f0e	0.09622012
97	0x3d32a4de	0.04361426
98	0xbd9c4814	-0.07630935
99	0x3d267120	0.04063523
100	0x3d505132	0.050858684
101	0x3d916f9e	0.071013674
102	0xbdab8401	-0.08374787
103	0x3d85d4de	0.06534742
104	0x3bfeec95	0.0077796676
105	0x3c8679e0	0.016415536
106	0xbd99c7c8	-0.075088084
107	0xbd85f7b7	-0.065413885
108	0xbd34ac06	-0.044109367
109	0xbc7a6d7c	-0.015284892
110	0xbcbbc458	-0.022920772
111	0x3c89c3fe	0.01681709
112	0xbd42e2d5	-0.047579605
113	0x3b95d6a0	0.0045727044
114	0x3d5511cd	0.05201893
115	0x3cd9d7e4	0.026592202
116	0x3d0ec489	0.0348554
117	0x3d2b162b	0.041769188
118	0xbd5fcc0a	-0.054637946
119	0x3db1f87f	0.08689975
120	0x3bd56fe4	0.0065135825
121	0x3cb3f187	0.021965755
122	0x3bdc2c1e	0.0067191264
123	0x3cd5560a	0.026042003
124	0xbd2fb968	-0.042901427
125	0xbd976da2	-0.07393958
126	0xbd54870c	-0.051886603
127	0x3cf27b9b	0.029599955
128	0xbda9ad08	-0.08284956
129	0x3d4256b4	0.047445968
130	0x3bc0e16c	0.0058862474
131	0xbcae4fa8	-0.021278217
132	0x3d3a5e13	0.045499872
133	0x3d216020	0.039398313
134	0xbce59848	-0.028026715
135	0x3d828310	0.063726544
136	0x3dc99aa1	0.09843946
137	0xbc4dd104	-0.01256204
138	0x3de38d76	0.11110966
139	0x3dbbf208	0.09177023
140	0x3d451022	0.04811109
141	0xbd1304a8	-0.035893112
142	0x3cf7dcde	0.030256685
143	0x3aef7343	0.0018268604
144	0x3d940f7f	0.07229518
145	0x3e04288d	0.12906094
146	0xbdafddad	-0.08587203
147	0xbd4d0ae7	-0.050059225
148	0xbdacf196	-0.08444516
149	0x3d643c7b	0.05572174
150	0x3d4f2617	0.050573435
151	0xbd82f816	-0.06394975
152	0xbb9c1390	-0.004763074
153	0xbd4eaa4f	-0.050455388
154	0x3d8fd611	0.07023252
155	0x3d9c4c44	0.07631734
156	0xbda7109c	-0.08157465
157	0xbd6041af	-0.05475014
158	0x3db72c00	0.08943939
159	0xbcea903d	-0.028633231
160	0xbce9a5c3	-0.028521424
161	0x3d976b11	0.07393468
162	0x3c61a5a3	0.013772401
163	0x3de04c3c	0.109520406
164	0xbc23bb3b	-0.00999337
165	0xbd9420b9	-0.07232804
166	0xbd8eb6ed	-0.06968484
167	0xbd7057de	-0.058677547
168	0xbd888ae6	-0.06667118
169	0xbd245286	-0.040117763
170	0xbd19ba72	-0.037531324
171	0xbab97bf4	-0.0014151321
172	0x3c84dafc	0.016217701
173	0x3de489d2	0.111591
174	0xbd968a62	-0.07350613
175	0x3d78fd90	0.06078869
176	0x3cefdfae	0.029281463
177	0x3caaf758	0.020869896
178	0xbd73e30e	-0.059542708
179	0x3c096810	0.008386627
180	0xbce3e71c	-0.027820162
181	0x3d9299c5	0.071582355
182	0xbd3e204b	-0.046417516
183	0x3df78c71	0.12087334
184	0x3db3830d	0.0876523
185	0xbcb5fa29	-0.022214012
186	0x3d645111	0.055741373
187	0x3d8fc58b	0.070201
188	0x3d66183f	0.056175467
189	0xbe03c8e0	-0.12869596
190	0xbd6bb84e	-0.057548814
191	0x3ce19312	0.027535949
192	0x3dd0caed	0.10194955
193	0xbd51a98c	-0.051187083
194	0x3c99117d	0.018685097
195	0xbd6cfddb	-0.057859283
196	0xbd8d5280	-0.06900501
197	0xbda04d3d	-0.07827232
198	0xbd17a9a1	-0.037027005
199	0x3d32cb9d	0.043651212
200	0x3cd1e822	0.025623385
201	0x3c0d1490	0.0086108595
202	0xbd6d7540	-0.057973146
203	0x3ceadd52	0.028669987
204	0xbd3c7b05	-0.046015758
205	0x3d3c0b43	0.045909178
206	0x3c046f07	0.008083112
207	0xbd69a6b1	-0.057043735
208	0x3c38a3d7	0.011269531
209	0x3d98b0f2	0.07455625
210	0xbb9dd194	-0.0048162434
211	0x3d27652a	0.040867962
212	0xbc929ef0	-0.017898053
213	0xbc7d00b8	-0.015442066
214	0x3c3fc203	0.011703971
215	0x3d4e5048	0.05036953
216	0x3b8bec7d	0.004270135
217	0x3b88c000	0.004173279
218	0xbcbf066e	-0.023318496
219	0x3da6d327	0.08145743
220	0x3cb870bd	0.022514695
221	0x3d1c7e98	0.038206667
222	0x3d92ddfe	0.07171248
223	0x3da55fdc	0.08074924
224	0x3da11a30	0.07866323
225	0x3d21d08a	0.03950552
226	0xbdd3a0a1	-0.10333372
227	0xbdb4b34a	-0.08823259
228	0xbcb57539	-0.022150623
229	0x3d35f6ec	0.044424936
230	0x3da2b83b	0.079452954
231	0xbc6126a5	-0.013742124
232	0xbcaffe6d	-0.021483624
233	0xbd0bee2a	-0.034162678
234	0xbd16f683	-0.036856186
235	0x3d1117c4	0.035423055
236	0xbd797908	-0.06090644
237	0x3d65dc03	0.056118023
238	0xbb6d1300	-0.0036174655
239	0x3c2128a2	0.009836348
240	0xbd565a98	-0.05233249
241	0xbda5115c	-0.08059952
242	0x3e0860fc	0.13318247
243	0x3d21ddb9	0.03951809
244	0x3d146eeb	0.036238592
245	0xbcb271b2	-0.02178273
246	0xbd2b194f	-0.041772183
247	0xbd900f3d	-0.070341565
248	0xbb42eb1b	-0.0029742185
249	0x3d8f9afa	0.07011981
250	0x3d24544c	0.040119454
251	0x3b728ca7	0.0037010105
252	0x3db5abd8	0.08870667
253	0x3c899edf	0.016799388
254	0xbb205ba0	-0.0024468675
255	0xbcf11da6	-0.029433083

model.model.model.6.bias f4 [128]
0	0x3d72147f	0.059101578
1	0x3d7577f4	0.05992885
2	0xbd93d388	-0.07218081
3	0xbcc3e196	-0.023911279
4	0xbda9e2e8	-0.08295232
5	0xbd3c254d	-0.04593401
6	0x3c7c0226	0.015381372
7	0xbcc298c1	-0.02375448
8	0x3b015944	0.0019737044
9	0x3db1a105	0.0867329
10	0x3db5d9e7	0.08879452
11	0x3cddda33	0.027081585
12	0x3da0fc62	0.07860638
13	0x3d704e1b	0.058668237
14	0x3aa32a6a	0.0012448553
15	0xbd9afe85	-0.07568077
16	0xbd342a17	-0.043985453
17	0xbcfcb45b	-0.030847719
18	0x3d23f698	0.040030092
19	0x3d99f43b	0.075172864
20	0xbd2a80e0	-0.04162681
21	0xbcac2ad1	-0.02101651
22	0x3c7c8121	0.015411646
23	0x3cd70a8b	0.026250144
24	0x3b37cb89	0.00280449
25	0x3c68e429	0.014214554
26	0x3d7fa8cd	0.06241684
27	0x3c8970f4	0.016777493
28	0x3de9d57d	0.11417673
29	0xbbd85cd9	-0.006602865
30	0x3dc6283f	0.09675645
31	0x3dbebe26	0.09313612
32	0x3d8c6768	0.06855661
33	0x3d9b8a7d	0.07594774
34	0x3dbf3a0a	0.09337242
35	0xbd954286	-0.07288079
36	0xbcdf9a03	-0.027295118
37	0x3d35cec8	0.044386655
38	0x3d2e96c6	0.042624258
39	0xbce8192a	-0.028332312
40	0xbd99bc6e	-0.07506643
41	0xbd69b48e	-0.057056956
42	0x3db203c0	0.086921215
43	0xbc9606e0	-0.018313825
44	0xbccf0222	-0.025269572
45	0xbd2038c2	-0.03911663
46	0xbd6538e2	-0.05596245
47	0xbd674a5c	-0.0564674
48	0x3d0cc5a5	0.034368176
49	0x3d9a0ad3	0.07521596
50	0xbd47d324	-0.048785344
51	0x3d1040b1	0.035217945
52	0x3884934a	6.321685e-05
53	0x3abfb040	0.001462467
54	0x3d20b7e0	0.039237857
55	0x3d845928	0.06462318
56	0x3d6029e7	0.05472746
57	0x3d26d952	0.040734597
58	0xbd2eea09	-0.042703662
59	0x3d1837b6	0.037162505
60	0x3d9d2b09	0.07674224
61	0xbd942f89	-0.07235629
62	0xbaa0605f	-0.0012235752
63	0xbd003779	-0.031302903
64	0xbc89e6b8	-0.016833648
65	0xbd1c8c2a	-0.03821961
66	0xbc7c05b8	-0.015382223
67	0xbc93a478	-0.01802276
68	0x3d919d5c	0.07110092
69	0x3da2d998	0.07951659
70	0xbca150f6	-0.019691925
71	0xbcc21632	-0.023692224
72	0x3c8b6c67	0.017019464
73	0x3d62650c	0.055272147
74	0x3d158e5c	0.036512718
75	0xbd9dcbb5	-0.0770487
76	0x3d05c2f4	0.032656625
77	0x3d8de910	0.06929219
78	0xbd8bf9a3	-0.06834724
79	0x3dc3c245	0.09558538
80	0xbcc7a4dc	-0.024370603
81	0x3d25358d	0.040334273
82	0xbd5501b8	-0.052003592
83	0x3d99e663	0.07514646
84	0x3ce90e03	0.028449064
85	0x3d5d6e4f	0.054060277
86	0xbd1cea2f	-0.038309272
87	0xba88285c	-0.0010388005
88	0xbcd0e08c	-0.025497697
89	0x3d48e220	0.049043775
90	0x3c256b20	0.010096341
91	0x3d711579	0.05885837
92	0x3da7b4dd	0.08188794
93	0xbd06615e	-0.0328077
94	0xbc20fe15	-0.009826203
95	0xbcbd1b1a	-0.023084212
96	0x3b1f62d0	0.0024320371
97	0xbb7a80fa	-0.0038223849
98	0x3d189d48	0.03725937
99	0xbd3f2f88	-0.04667619
100	0xbd3ed247	-0.046587255
101	0x3dd712bc	0.1050162
102	0x3cd80868	0.026371196
103	0x3d4bc69a	0.049749948
104	0xbcb59197	-0.02216415
105	0xbd93490b	-0.07191666
106	0xbc027810	-0.007963195
107	0xbd65c182	-0.056092747
108	0xbdb79a0b	-0.08964928
109	0x3d7a8708	0.061163932
110	0x3d32fb50	0.0436967
111	0x3d898888	0.067154944
112	0xba83995c	-0.0010040211
113	0x3ddbf1bd	0.10739467
114	0x394ec574	0.00019719248
115	0x3d16fe45	0.036863584
116	0x3b3d6be4	0.002890342
117	0xbd859f05	-0.06524471
118	0xbc8538a7	-0.016262366
119	0xbcb39816	-0.021923106
120	0xbd640c64	-0.05567588
121	0x3d886dd8	0.06661576
122	0xbd4193dd	-0.047260154
123	0x3d965325	0.07340077
124	0xbb92062a	-0.004456301
125	0xbdaa96df	-0.083295576
126	0x3d34d241	0.044145826
127	0xbd8752b6	-0.06607573

model.model.model.8.weight f4 [9, 128]
0	0xbd84ad6c	-0.0647839
1	0x3c266094	0.010154862
2	0x3c9d0be5	0.01917071
3	0x3c7e0c73	0.015505898
4	0x3db73f26	0.089475915
5	0x3d41b0da	0.0472878
6	0xbc7df439	-0.015500122
7	0x3deca9e8	0.115558445
8	0x3d8b69e8	0.068073094
9	0xbdf4c5c2	-0.11951782
10	0xbe08b22b	-0.13349216
11	0x3d4daa64	0.050211325
12	0x3d6e0a96	0.058115564
13	0xbd0b646d	-0.03403132
14	0xbcb1c30f	-0.021699456
15	0x3df4f9c8	0.119617045
16	0x3b93e3bd	0.0045132325
17	0xbde54779	-0.11195273
18	0xbdd461d5	-0.103702225
19	0xbd534e31	-0.05158824
20	0x3d6a1f01	0.057158474
21	0x3d917ff9	0.07104487
22	0xbd962705	-0.07331661
23	0xbd1cc71a	-0.038275816
24	0x3da7e308	0.081976
25	0x3dd19da1	0.102351435
26	0x3dbb4fdf	0.091460936
27	0x3de00a41	0.10939456
28	0xbd132bec	-0.03593056
29	0xbdafa7ab	-0.08576902
30	0xbd4b1275	-0.04957815
31	0x3d4bb4ea	0.04973308
32	0x3d5bad5e	0.053632133
33	0xbd9a038e	-0.07520209
34	0x3c17e171	0.009270058
35	0xbcb69730	-0.022288889
36	0x3d384bd7	0.0449942
37	0xbcfff080	-0.031242609
38	0xbca8588b	-0.020550033
39	0x3d94e8c3	0.07270958
40	0x3d847d5f	0.06469225
41	0xbd7ad72f	-0.06124037
42	0xbd24b9cc	-0.040216252
43	0xbd47d4ee	-0.04878705
44	0xbd9badfe	-0.07601546
45	0x3c274931	0.010210321
46	0xbdb878a9	-0.09007389
47	0x3d1789dd	0.03699671
48	0xbd345faf	-0.044036563
49	0xbda7a22a	-0.08185227
50	0x3cd27320	0.025689662
51	0x3d9eebee	0.07759844
52	0x3d842937	0.064531736
53	0x3d80e873	0.06294336
54	0x3d8230e7	0.06356984
55	0x3db9c6fe	0.09071158
56	0xbd84023b	-0.06445738
57	0x3e057a5d	0.13034959
58	0x3dfdefa6	0.12399225
59	0x3d9ea724	0.07746723
60	0x3c434db6	0.011920383
61	0x3c048a70	0.008089647
62	0x3dc9c19a	0.0985138
63	0x3d3bcbce	0.04584866
64	0x3da415d2	0.080119744
65	0x3db81805	0.08988956
66	0x3d52539e	0.051349275
67	0x3d83b6e1	0.06431366
68	0xbd524287	-0.051332977
69	0xbc419a0e	-0.011816515
70	0xbdc469d1	-0.095904954
71	0x3d0a6c47	0.033794668
72	0xbbf4bafd	-0.00746858
73	0x3d55a7e8	0.05216208
74	0xbe17b01f	-0.14813279
75	0x3d5f983a	0.054588534
76	0x3cf806eb	0.030276736
77	0xbd6f7221	-0.05845845
78	0x3ba7ec16	0.005124579
79	0xbdb0cf34	-0.08633271
80	0x3bb064e1	0.0053831195
81	0xbd4f5a64	-0.050623313
82	0xbdc771a0	-0.09738469
83	0x3d02f1c7	0.031968858
84	0xbdd48801	-0.10377503
85	0xba311016	-0.0006754411
86	0xbd3741b9	-0.044740412
87	0xbdb38d29	-0.087671585
88	0x3d857582	0.065165535
89	0x3cc7668d	0.024340892
90	0x3de8e45d	0.11371682
91	0xbd91fe73	-0.071286105
92	0xbd30ac05	-0.0431328
93	0xbd4a43da	-0.049381115
94	0x3db0bef0	0.086301684
95	0xbd8a0e18	-0.067409694
96	0xbd117d6d	-0.035520006
97	0xbda8f4a4	-0.082497865
98	0x3c8677f2	0.016414616
99	0x3d760277	0.060060944
100	0x3cb7e621	0.022448601
101	0xbd30d5e7	-0.043172743
102	0x3c8de3db	0.017320564
103	0xbd4ace50	-0.04951316
104	0x3bbc5670	0.005747609
105	0xbda121d1	-0.07867778
106	0x3ce58f38	0.028022394
107	0x3d94c074	0.0726327
108	0xbda69ec2	-0.081357494
109	0xbdbf3a88	-0.09337336
110	0xbd95db41	-0.0731721
111	0xbd5243b6	-0.051334105
112	0xba2605a6	-0.0006333239
113	0xbdc721fc	-0.09723279
114	0xbd248bbf	-0.040172335
115	0x3bff1101	0.0077840094
116	0x3da9fcb6	0.08300154
117	0x3d2a4cae	0.041577034
118	0x3d0783a6	0.033084534
119	0x3cc01e35	0.023451904
120	0xbd5ca13c	-0.053864703
121	0xbdeb9bb0	-0.115043044
122	0x3db4e47b	0.08832642
123	0x3c9a4a0a	0.018834133
124	0x3cf3bae3	0.0297522
125	0x3da6db21	0.08147264
126	0xbb8ced32	-0.004300737
127	0x3e012b47	0.12614165
128	0x3d9b285f	0.075760596
129	0x3db7fc30	0.08983648
130	0x3db2c3ce	0.08728753
131	0xbd9914e0	-0.07474685
132	0xbd5510e1	-0.05201805
133	0xbda5df0a	-0.08099182
134	0xbd354292	-0.04425294
135	0xbcc776a0	-0.024348557
136	0x3d42caa4	0.047556534
137	0xbdbb4211	-0.091434605
138	0xbb07fc80	-0.0020749867
139	0x3db6aa30	0.089191794
140	0x3d66229d	0.056185354
141	0x3d4a2158	0.049348205
142	0xbdafe774	-0.08589068
143	0xbc48aa19	-0.012247586
144	0xbded9f66	-0.116026685
145	0xbe199c09	-0.15000929
146	0x3ca69870	0.02033636
147	0x3ddcdf72	0.10784806
148	0x3ddfb7f3	0.109237574
149	0xbcefd6d2	-0.029277239
150	0x3c3a2cac	0.01136319
151	0xbdbf143a	-0.0933003
152	0xbd8c9fbc	-0.068664044
153	0xbd0e8264	-0.03479232
154	0xbc97e548	-0.018541947
155	0x3ce4d906	0.027935516
156	0x3dffc912	0.12489523
157	0xbd64e426	-0.05588164
158	0x3df0e1cc	0.11761817
159	0x3d4d2292	0.050081797
160	0x3da8ec4b	0.08248194
161	0xbd38e602	-0.045141228
162	0xbc28600f	-0.010276808
163	0x3d42bb0a	0.047541656
164	0x3c1fc4e6	0.009751534
165	0xbd81d50b	-0.06339463
166	0x3c632f85	0.01386631
167	0xbdb31f13	-0.08746161
168	0x3d9d585a	0.07682867
169	0x3cc8af81	0.02449775
170	0xbcdd8945	-0.027042994
171	0xbdf006a2	-0.11720015
172	0x3db4400b	0.08801278
173	0x3dae15cb	0.085002504
174	0x3c7f59ef	0.015585407
175	0xbd45127b	-0.048113327
176	0x3da03a16	0.07823579
177	0x3dc33c66	0.095330045
178	0x3d8a9369	0.067663975
179	0x3d585ace	0.052820973
180	0x3d1497f1	0.036277715
181	0x3d94221f	0.072330706
182	0x3d8625d9	0.065501876
183	0xbd9f3fc4	-0.07775834
184	0x3b902b11	0.004399665
185	0x3d3949ab	0.04523627
186	0xbda8faf4	-0.082509905
187	0x3d80df14	0.06292549
188	0x3dd5b939	0.10435719
189	0x3c8d2032	0.017227266
190	0x3df6b7ed	0.120468
191	0xbd11adc8	-0.03556612
192	0x3d1e63b1	0.038669292
193	0xbd85a924	-0.06526402
194	0x3d028501	0.031865124
195	0x3dd94471	0.10608757
196	0xbdd1b654	-0.102398545
197	0x3d1e93b9	0.038715098
198	0xbd5e67d0	-0.054298222
199	0xbdae42f6	-0.085088655
200	0xbc458f17	-0.012058041
201	0xbcde7fcd	-0.02716055
202	0xbdcd7269	-0.10031588
203	0x3cf13bef	0.029447524
204	0xbd0ad551	-0.03389484
205	0xbdafd507	-0.085855536
206	0x3b9d9731	0.004809283
207	0x3d4517f2	0.04811854
208	0x3cea029a	0.028565694
209	0xbdca9694	-0.09892002
210	0x3da45be7	0.080253415
211	0x398d2c03	0.00026926407
212	0xbb25dfee	-0.0025310474
213	0x3bbfa093	0.0058479994
214	0x3d3f8ea2	0.046766885
215	0xbba09025	-0.004899996
216	0x3e1b22a3	0.15149932
217	0x3de9b370	0.11411178
218	0xbdaa4596	-0.08314054
219	0x3da0d5f9	0.07853312
220	0x3d50fe41	0.051023725
221	0x3dd9e643	0.10639622
222	0x3bcbe50e	0.006222374
223	0x3d851ac8	0.06499249
224	0xbd65cbf6	-0.056102715
225	0x3e0d82b7	0.13819395
226	0xbb79c96a	-0.0038114437
227	0x3d9fd38e	0.07804023
228	0x3b81f129	0.003965516
229	0xbccc97ee	-0.02497479
230	0x3db1205f	0.086487524
231	0x3d991ea0	0.074765444
232	0x3d9c07ed	0.07618699
233	0xbda564d0	-0.08075869
234	0xbdb1a0fe	-0.08673285
235	0x3c7f3a20	0.015577823
236	0x3d957aa9	0.07298786
237	0x3da584f6	0.08082001
238	0x3dd9ba4d	0.10631237
239	0xbdab86ab	-0.08375295
240	0xbe0230a5	-0.12713869
241	0x3d138824	0.036018506
242	0x3dcd1d89	0.10015399
243	0xbdb4938a	-0.08817203
244	0xbd1bf38b	-0.038074058
245	0x3d416b7e	0.047221653
246	0xbc4b834d	-0.012421441
247	0x3d40b957	0.047051754
248	0xbd2badbc	-0.041913733
249	0x3cee7ac8	0.029111281
250	0xbc8a16f8	-0.016856655
251	0x3b9f3f22	0.004859821
252	0xbca9cd87	-0.020727886
253	0x3cb96f44	0.022636063
254	0x3d71ac03	0.059001934
255	0x3d00e2af	0.031466182

model.model.model.8.bias f4 [9]
0	0x3d844c14	0.06459823
1	0x3d9d1c75	0.076714434
2	0x3ce704ab	0.028200468
3	0x3c49bb8d	0.012312782
4	0x3da8af69	0.08236582
5	0xbdca00d0	-0.09863436
6	0x3d411835	0.047142226
7	0xbd890fbd	-0.06692455
8	0x3d06db00	0.0329237
